trafic_gru/gru_model.pth (torch, 160229 bytes, 9 tensors)

gru.weight_ih_l0 f4 [192, 7]
-0.10186748 0.36159185 -0.29352573 -0.14883703 -0.61809903 -0.1847734 -0.051761292 -0.424561
-0.012721946 -0.1885049 -0.27354434 -0.1259 -0.37893853 -0.358852 -0.15179798 0.028120507
-0.023314046 -0.12810215 -0.37746075 -0.122913115 -0.3283081 -0.045749526 0.10532627 0.14931262
0.04915815 -0.36073747 -0.104999445 -0.019333582 -0.42122233 0.13499598 -0.18024993 -0.34493864
-0.11592632 -0.29248944 -0.41917604 -0.10963496 -0.07083939 0.19901597 -0.021363024 -0.14644495
-0.013640993 -0.05145096 -0.03690504 -0.19890653 -0.20570509 0.08151912 -0.28534725 0.07847215
0.104882665 -0.2957795 0.103253946 -0.3038759 -0.18449926 -0.30354145 -0.22836554 -0.20657298
-0.35742292 -0.09253332 0.049985982 -0.33449826 -0.15733156 -0.04634593 -0.105275854 -0.34303623
-0.16361873 0.1616241 -0.16410692 -0.20247464 -0.4651006 -0.106218755 -0.2397356 0.02238445
-0.16359581 -0.27771032 -0.3618363 -0.11981292 -0.2720695 -0.14697962 0.21089728 0.10556857
-0.279854 -0.251079 -0.15195945 -0.033625398 -0.27486688 0.044401012 0.1709453 -0.08423482
-0.25965792 -0.078185104 -0.024653586 -0.10511285 0.07255165 0.20439842 -0.08471488 0.040097196
-0.28623065 -0.23610508 -0.121210776 0.0063197417 -0.41677982 0.056802973 -0.425797 -0.24278156
-0.074696444 0.005692454 0.027002977 -0.37222582 0.020235114 -0.15861332 -0.06779791 0.23284942
-0.056603782 -0.27119544 -0.0066972594 0.036337495 0.51464325 -0.25622073 -0.079166576 -0.1537037
-0.06274042 0.18397382 -0.22345212 0.09683837 -0.31985947 -0.09465744 -0.16143309 -0.14887777
0.11927806 -0.014555533 -0.10726606 -0.1732902 -0.08436296 -0.17765291 -0.20340392 0.11356934
-0.17159683 -0.28604558 -0.045609146 -0.09349879 -0.098205 -0.12627526 0.016329436 -0.1235144
-0.24554263 -0.41663337 -0.81497127 -0.09324688 0.0030197545 0.5413383 -0.35166475 0.03860903
0.087447576 -0.11906557 -0.03133079 0.041278854 0.478174 -0.04602958 0.03851507 -0.1240502
0.45967448 -0.25536335 -0.106167935 -0.1142361 0.06732227 0.015253243 -0.121648826 -0.21259059
-0.33836946 0.11972064 -0.041742463 -0.16102712 -0.39049855 -0.3316433 -0.27004883 -0.07050896
0.27302384 0.19994755 -0.17009625 -0.76708496 -0.10109775 -0.03494104 -0.1954314 -0.025146319
-0.040080097 -0.25453556 -0.35524514 -0.12205349 -0.050864648 -0.3492866 -0.14975622 0.076578245
-0.37887132 -0.24808192 -0.46046138 -0.3117463 -0.073041625 0.0041923425 0.3266156 -0.1365648
0.5342213 0.23176076 -0.07410409 -0.10120729 -0.03077848 -0.054649033 -0.18257655 -0.32629687
-0.088001415 -0.26479623 -0.1304572 -0.029157035 0.16340205 -0.05978068 -0.32070792 -0.030332122
-0.07130976 -0.16878259 0.17330788 -0.35271668 -0.07348219 -0.54832536 -0.25023243 -0.06201574
-0.04550942 -0.04971879 -0.10342238 -0.1505884 -0.32172632 -0.008725062 -0.2755073 -0.1896519
0.0003448208 -0.13845631 0.17734525 -0.014852347 -0.35551554 -0.59311676 -0.12364859 -0.08944691
0.56102556 -0.17648315 -0.04742412 0.010653004 -0.2510384 -0.11904194 0.011057528 -0.46346006
-0.06990372 -0.0502159 -0.19354996 -0.18081123 -0.06718959 -0.09653664 0.12492456 -0.11069656
00000000: e69f d0bd 9122 b93e 0149 96be bc68 18be
00000010: bd3b 1ebf 3d35 3dbe a603 54bd 0f60 d9be
00000020: b66f 50bc 6e07 41be 010e 8cbe eeeb 00be
00000030: 3b04 c2be 73bb b7be ee70 1bbe fa5c e63c
00000040: 19fd bebc 362d 03be 8942 c1be dfb9 fbbd
00000050: 0018 a8be db63 3bbd 4db5 d73d 68e5 183e
00000060: 0e5a 493d 95b2 b8be f309 d7bd 7661 9ebc
00000070: 74aa d7be 633c 0a3e 7093 38be cc9b b0be
00000080: c76a edbd 2dc1 95be 3e9e d6be 4b88 e0bd
00000090: 3e14 91bd d8ca 4b3e 8201 afbc aaf5 15be
000000a0: 797e 5fbc 3ebe 52bd bd29 17bd 27ae 4bbe
000000b0: 5ba4 52be 7ff3 a63d 0919 92be 02b6 a03d
000000c0: b9cc d63d 6970 97be ce76 d33d 9f95 9bbe
000000d0: 60ed 3cbe c969 9bbe a8d8 69be de87 53be
000000e0: 2300 b7be 1c82 bdbd 1abe 4c3d 5b43 abbe
000000f0: 861b 21be 3bd5 3dbd de9a d7bd 72a2 afbe
00000100: ab8b 27be ca80 253e a50b 28be 8355 4fbe
00000110: aa21 eebe 3889 d9bd 407d 75be 985f b73c
00000120: a985 27be 0c30 8ebe 9c42 b9be 7a60 f5bd
00000130: b24c 8bbe d381 16be 75f5 573e 5634 d83d
00000140: 0649 8fbe 6d8d 80be 429b 1bbe c9ba 09bd
00000150: 5abb 8cbe d6dd 353d 490c 2f3e 4e83 acbd
00000160: e2f1 84be 831f a0bd 51f6 c9bc 6845 d7bd
00000170: f695 943d d24d 513e ff7e adbd f53c 243d
00000180: d38c 92be 88c5 71be 5b3d f8bd d615 cf3b
00000190: 2a64 d5be 3caa 683d 1002 dabe bb9b 78be
000001a0: 73fa 98bd c487 ba3b 5935 dd3c 6294 bebe
000001b0: 1cc4 a53c 886b 22be a1d9 8abd 1470 6e3e
000001c0: 5ed9 67bd 21da 8abe af74 dbbb a0d6 143d
000001d0: a9bf 033f 5d2f 83be 1622 a2bd 8164 1dbe
000001e0: 0d7e 80bd a263 3c3e a2d0 64be 3253 c63d
000001f0: 9fc4 a3be c3db c1bd b74e 25be 6a73 18be
00000200: 0e48 f43d 557a 6ebc 4fae dbbd fc72 31be
00000210: 7dc6 acbd a5ea 35be 1e49 50be 0b97 e83d
00000220: 14b7 2fbe 9174 92be a8d0 3abd 4b7c bfbd
00000230: b41f c9bd 4d4e 01be 4fc5 853c 1ef5 fcbd
00000240: 876f 7bbe f850 d5be f5a1 50bf 38f8 bebd
00000250: 13e7 453b 2695 0a3f 670d b4be 8124 1e3d
00000260: b717 b33d a6d8 f3bd b754 00bd 0414 293d
00000270: 39d3 f43e 8389 3cbd fac1 1d3d 080e febd
00000280: 745a eb3e fcbe 82be 936e d9bd 9ef4 e9bd
00000290: 42e0 893d bde8 793c 0523 f9bd 59b1 59be
000002a0: c33e adbe 1830 f53d 25fa 2abd 4be4 24be
000002b0: 6def c7be 27cd a9be d743 8abe 0067 90bd
000002c0: c8c9 8b3e 0dbf 4c3e b62d 2ebe ae5f 44bf
000002d0: 560c cfbd 561e 0fbd 2b1f 48be a7ff cdbc
000002e0: 072b 24bd 7c52 82be b1e2 b5be 2ef7 f9bd
000002f0: 7357 50bd b1d5 b2be b259 19be 0ed5 9c3d
00000300: 6cfb c1be 3009 7ebe 98c1 ebbe 369d 9fbe
00000310: d996 95bd eb5f 893b 293a a73e a5d7 0bbe
00000320: bac2 083f b152 6d3e e3c3 97bd c545 cfbd
00000330: 2723 fcbc aad7 5fbd 59f5 3abe 6210 a7be
00000340: 163a b4bd 5f93 87be 9296 05be bcda eebc
00000350: de52 273e 96dc 74bd d433 a4be 127b f8bc
00000360: da0a 92bd 58d5 2cbe 9f77 313e 4897 b4be
00000370: d57d 96bd 0d5f 0cbf 771e 80be 3704 7ebd
00000380: 1668 3abd eea5 4bbd 1dcf d3bd d833 1abe
00000390: 50b9 a4be 90f3 0ebc 4b0f 8dbe 1c34 42be
000003a0: 10c9 b439 7ec7 0dbe fe99 353e 4257 73bc
000003b0: 2206 b6be 80d6 17bf 793b fdbd f12f b7bd
000003c0: 5f9f 0f3f 00b8 34be cb3f 42bd f089 2e3c
000003d0: 1b88 80be 43cc f3bd a22a 353c a34a edbe
000003e0: ae29 8fbd 30af 4dbd f631 46be 9426 39be
000003f0: b29a 89bd 00b5 c5bd 73d8 ff3d e1b4 e2bd

gru.weight_hh_l0 f4 [192, 64]
-0.024137134 -0.087896116 -0.08560889 0.144341 -0.1778766 -0.03422927 0.10379338 -0.016673187
-0.05701627 -0.04806231 -0.15412116 0.10792178 0.0623139 -0.11670405 0.053792033 -0.012766797
0.11908287 -0.097964026 -0.03817898 0.05868311 -0.13172412 -0.26595104 0.03158536 0.13175935
0.17665505 0.07749388 -0.03144905 0.032293126 -0.07077232 -0.1098865 -0.14230181 0.062185716
-0.063583575 0.060796577 -0.058027484 0.059659608 -0.11750017 -0.012286797 -0.044545636 -0.06292122
-0.011682814 0.12706326 0.015904794 0.20581497 -0.11009054 0.16052985 -0.06793111 -0.09454041
0.011943942 0.16776507 0.024114382 -0.11622215 -0.04169197 0.0805359 0.046889227 0.036229696
-0.023901206 0.18902855 0.05513446 -0.13746692 -0.08921663 -0.11398564 -0.23172371 0.07378374
-0.07904314 -0.16793406 0.08424207 -0.19477302 -0.08150439 -0.07087717 -0.28371534 -0.20987362
-0.17151637 0.17911956 -0.44893974 -0.0031739892 0.24276847 -0.33813944 0.024093688 0.10478913
-0.13501914 0.21649282 -0.24265227 -0.36550364 -0.23818195 -0.089261 0.2829572 0.14710148
0.117276475 -0.15007618 0.13590024 -0.20625423 0.06701619 -0.39947447 -0.055134583 0.036072582
-0.080297485 -0.05091876 -0.17731309 0.16132748 0.3002027 0.19958803 -0.052545097 0.28299332
0.09851367 0.2396491 -0.0046842596 0.30299333 -0.3364412 0.104435965 -0.13048539 0.019175924
0.1358851 0.11384368 -0.1426057 0.1941956 0.12285289 -0.09567371 0.29220355 -0.2681771
-0.057444658 -0.17998971 0.047265835 -0.13907228 -0.1552118 -0.06667937 0.21494742 0.12880298
-0.17184721 -0.08114393 0.045240596 -0.17284717 -0.22166228 -0.09588547 -0.26827806 -0.043898467
-0.35980815 0.1872131 -0.18175429 0.046536773 0.15086877 -0.13556586 0.05991223 0.28843686
-0.27039278 0.102756575 -0.0013761932 -0.11597777 -0.20032167 -0.053940605 0.08571297 0.31569234
0.35120112 0.100511685 0.08888583 -0.24466111 0.25703794 -0.13443024 0.005615032 0.05109919
-0.13832308 0.20063427 -0.056713067 0.22572014 0.109236024 0.12761381 0.13005862 0.014751551
0.19993931 0.3253024 -0.06848061 0.092057034 -0.089851186 0.21990578 0.011494002 -0.19132909
-0.12733263 -0.080447905 0.026536059 0.24444026 0.19206244 -0.105148196 0.13697082 -0.16061264
-0.09292079 0.30546063 -0.040170584 -0.33048394 -0.23727074 -0.094968416 0.12958814 0.15321203
-0.14716226 0.04138761 0.10356673 -0.18896508 -0.0874077 -0.26598132 -0.17675355 -0.06940961
-0.25726795 0.14114416 -0.044188187 0.12224926 0.07698973 0.11130699 0.13534684 0.08879692
-0.18666881 -0.06432655 -0.083771914 0.16200215 -0.12224037 -0.013726964 -0.051029183 0.14037727
0.10704902 0.11494822 0.11668779 -0.106709346 0.1640313 -0.02039501 -0.043920636 -0.021919535
-0.026901843 -0.16345431 -0.06985008 0.14140858 -0.022447381 -0.021461232 -0.053488493 -0.035772517
0.027162217 0.21895015 -0.117540404 0.06373711 0.0337746 -0.06270209 0.15803261 0.016184896
-0.17738917 -0.09398118 0.04473804 0.21861148 0.020780042 -0.23788074 0.03907222 -0.0683966
-0.1615702 -0.026292048 -0.08886249 -0.050925985 0.045581542 -0.04018952 0.25043508 0.18371789
00000000: 3dbb c5bc e102 b4bd b753 afbd 21ce 133e
00000010: 4925 36be fe33 0cbd a091 d43d 3596 88bc
00000020: e489 69bd fcdc 44bd f0d1 1dbe 1806 dd3d
00000030: dc3c 7f3d 8802 efbd 0955 5c3d d42b 51bc
00000040: b8e1 f33d 5da1 c8bd 9061 1cbd b35d 703d
00000050: b0e2 06be bc2a 88be a75f 013d eceb 063e
00000060: 10e5 343e 1db5 9e3d b8d0 00bd cc45 043d
00000070: 14f1 90bd 2c0c e1bd 91b7 11be 73b6 7e3d
00000080: 1b38 82bd d505 793d 3aae 6dbd a25d 743d
00000090: eea3 f0bd 904e 49bc 7c75 36bd d7dc 80bd
000000a0: 4669 3fbc df1c 023e c54a 823c 29c1 523e
000000b0: 2677 e1bd f061 243e 771f 8bbd 679e c1bd
000000c0: 86b0 433c 9bca 2b3e 868b c53c e105 eebd
000000d0: 33c5 2abd 02f0 a43d eb0e 403d 9765 143d
000000e0: 76cc c3bc b390 413e acd4 613d 21c4 0cbe
000000f0: 35b7 b6bd 4e71 e9bd fb48 6dbe ee1b 973d
00000100: 5fe1 a1bd e8f6 2bbe 1b87 ac3d 9472 47be
00000110: c6eb a6bd 0d28 91bd 2343 91be 1ce9 56be
00000120: fda1 2fbe 1e6b 373e 6edb e5be b402 50bb
00000130: 4c98 783e 9d20 adbe 2060 c53c af9b d63d
00000140: 7542 0abe 4bb0 5d3e d679 78be 4b23 bbbe
00000150: f8e5 73be 79ce b6bd c4df 903e c5a1 163e
00000160: a62e f03d 92ad 19be 6f29 0b3e 4f34 53be
00000170: c93f 893d eb87 ccbe cdd4 61bd d8c0 133d
00000180: 0273 a4bd 3190 50bd 9091 35be 0833 253e
00000190: 2bb4 993e ce60 4c3e 8739 57bd 80e4 903e
000001a0: 89c1 c93d 9366 753e 6b7e 99bb f121 9b3e
000001b0: 0542 acbe 86e2 d53d f69d 05be d416 9d3c
000001c0: 7725 0b3e e026 e93d 3b07 12be 36db 463e
000001d0: 4c9a fb3d 94f0 c3bd b49b 953e 824e 89be
000001e0: 174b 6bbd 394f 38be d299 413d f768 0ebe
000001f0: d8ef 1ebe 328f 88bd 2d1b 5c3e eee4 033e
00000200: b7f8 2fbe ca2e a6bd 344e 393d d9fe 30be
00000210: 70fb 62be 9a5f c4bd be5b 89be e1ce 33bd
00000220: c638 b8be cab4 3f3e cc1d 3abe 589d 3e3d
00000230: 587d 1a3e c7d1 0abe 8766 753d ffad 933e
00000240: ec70 8abe 0a72 d23d 6261 b4ba c185 edbd
00000250: 2021 4dbe d3f0 5cbd 488a af3d 6da2 a13e
00000260: a2d0 b33e 12d9 cd3d c609 b63d 7188 7abe
00000270: 7a9a 833e 15a8 09be 4dfe b73b 624d 513d
00000280: 91a4 0dbe 1273 4d3e f64b 68bd 2e23 673e
00000290: 23b7 df3d 32ad 023e 162e 053e 7db0 713c
000002a0: e4bc 4c3e 098e a63e 903f 8cbd 6688 bc3d
000002b0: e603 b8bd fb2e 613e 5751 3c3c c6eb 43be
000002c0: 7c63 02be dfc1 a4bd 2662 d93c 8c4e 7a3e
000002d0: 04ac 443e f057 d7bd 1442 0c3e a477 24be
000002e0: 414d bebd 5665 9c3e e989 24bd 3135 a9be
000002f0: 1af7 72be cd7e c2bd c1b2 043e 9de3 1c3e
00000300: b4b1 16be 0e86 293d cb1a d43d 1080 41be
00000310: cf02 b3bd b42e 88be e2fe 34be a026 8ebd
00000320: a0b8 83be 1888 103e acfe 34bd d25d fa3d
00000330: cbac 9d3d ebf4 e33d 5d98 0a3e 29db b53d
00000340: 1c26 3fbe a3bd 83bd 9c90 abbd e4e3 253e
00000350: 2959 fabd 0fe7 60bc fa03 51bd 0fbf 0f3e
00000360: 843c db3d f969 eb3d 02fa ee3d 6e8a dabd
00000370: d2f7 273e 7013 a7bc 20e6 33bd 9990 b3bc
00000380: 4161 dcbc 9160 27be 8f0d 8fbd 69cd 103e
00000390: 92e3 b7bc 77cf afbc c016 5bbd 3486 12bd
000003a0: 4c83 de3c 7834 603e 06b9 f0bd 9a88 823d
000003b0: 3c57 0a3d f469 80bd 4dd3 213e 3096 843c
000003c0: 82a5 35be 3479 c0bd 3c3f 373d b0db 5f3e
000003d0: e83a aa3c 0297 73be 310a 203d 8413 8cbd
000003e0: a972 25be 6c62 d7bc 8afd b5bd c497 50bd
000003f0: b6b3 3a3d c49d 24bd 0739 803e 8b20 3c3e

gru.bias_ih_l0 f4 [192]
-0.041542646 -0.36445847 -0.19826576 -0.13414188 -0.3054561 -0.12595488 -0.017250724 -0.35462275
-0.1491676 -0.20849814 -0.09376186 -0.05168751 -0.19741514 -0.15944946 -0.15384343 -0.14205346
-0.18975483 -0.24913144 0.035373427 -0.016806927 -0.17032544 -0.24566245 -0.24142271 -0.24679218
-0.03388922 -0.044155955 -0.03127985 -0.22573669 -0.11438842 -0.083140336 -0.06926787 -0.13136967
-0.0033361863 -0.087783754 -0.009658477 -0.023020072 -0.1475738 -0.076017335 -0.09683964 -0.15326722
-0.07995136 -0.12508197 -0.03908733 -0.08719187 -0.2596062 -0.04839386 -0.0368361 -0.06347146
-0.027089713 -0.18695004 -0.06056155 -0.0065043224 -0.166708 -0.17221417 -0.24329057 -0.19342503
-0.0999576 -0.03172128 -0.14389396 -0.22223993 -0.1960678 -0.019727293 -0.29042095 -0.0794654
-0.22676091 -0.47249988 -0.06307027 -0.25735876 -0.64797777 0.047920838 0.16563308 -0.12164039
-0.59278226 0.18503015 -0.26866686 -0.5138151 0.026839497 -0.17196426 -0.13214903 0.33582
-0.51487803 0.19273834 0.12788522 -0.32200664 0.124411136 -0.052014034 0.15117204 -0.061621618
-0.8240833 -0.5875596 -0.0064568436 -0.058623023 -0.31889957 -0.04837627 -0.2473504 -0.3590481
-0.17529765 -0.103293136 -0.079035126 0.020071778 -0.627016 -0.54496956 -0.04537316 -0.0461535
-0.17342277 -0.45007274 -0.05696282 -0.5916942 -0.4263835 -0.4988591 -0.16448939 -0.33886057
-0.4003668 -0.14534652 -0.26623166 -0.3725923 -0.048819646 -0.2803684 -0.002421056 -0.13112384
-0.39060634 -0.23353003 -0.48606333 -0.55384296 -0.0013788228 -0.29033026 -0.4044191 0.14595887
-0.02905555 0.06754823 0.1330459 -0.0010530439 -0.10515275 -0.0010515874 0.14284028 0.14885175
0.04300425 -0.13581033 0.05800123 0.048944023 -0.09188649 -0.011430027 0.033872783 -0.115825675
0.049349934 -0.1131947 0.17115892 0.18550721 0.11621254 -0.13202256 -0.071243085 -0.09016279
0.057526566 0.111405894 0.0008860334 0.09915473 -0.07484489 -0.0071259844 0.003008516 0.08208512
0.12872286 0.091635406 0.112566255 0.012743356 0.04753052 0.06744543 0.093309365 -0.039833263
-0.04117859 -0.051940523 -0.13848735 -0.04148115 0.12767728 -0.029348038 0.11331557 0.035890453
0.04335322 0.07890001 -0.0030120073 -0.00078900694 -0.16196942 -0.03039515 0.09791599 0.050085362
-0.03423844 0.05754161 -0.06463052 -0.01572668 0.0083238175 -0.028209878 -0.043732416 -0.083574
00000000: 9f28 2abd 4d9a babe 2e06 4bbe 7d5c 09be
00000010: be64 9cbe 51fa 00be 6451 8dbc 1d91 b5be
00000020: 64bf 18be 8980 55be 3806 c0bd 48b6 53bd
00000030: 3227 4abe b846 23be 2289 1dbe 7676 11be
00000040: 174f 42be 501c 7fbe bae3 103d aeae 89bc
00000050: cb69 2ebe f08e 7bbe 8437 77be 17b7 7cbe
00000060: 6ccf 0abd e0dc 34bd 4d1f 00bd 8527 67be
00000070: 7a44 eabd 7b45 aabd 50dc 8dbd c585 06be
00000080: eba3 5abb f8c7 b3bd 973e 1ebc 9794 bcbc
00000090: 961d 17be faae 9bbd dc53 c6bd 15f2 1cbe
000000a0: 8abd a3bd 7d15 00be 091a 20bd a791 b2bd
000000b0: 1beb 84be a438 46bd 73e1 16bd 53fd 81bd
000000c0: 3feb ddbc d56f 3fbe 630f 78bd 3622 d5bb
000000d0: 80b5 2abe e958 30be 2a21 79be 3611 46be
000000e0: 92b6 ccbd 2cee 01bd f058 13be dd92 63be
000000f0: ffc5 48be 229b a1bc 0eb2 94be c1be a2bd
00000100: 0334 68be 81eb f1be fc2a 81bd 87c4 83be
00000110: dfe1 25bf a448 443d b89b 293e 991e f9bd
00000120: 94c0 17bf 8b78 3d3e b48e 89be 6389 03bf
00000130: 81de db3c 6617 30be 1352 07be 99f0 ab3e
00000140: 0ccf 03bf 335d 453e 58f4 023e 0ede a4be
00000150: 44cb fe3d ab0c 55bd d8cc 1a3e f366 7cbd
00000160: 20f7 52bf 4e6a 16bf ee93 d3bb b21e 70bd
00000170: ce46 a3be 3226 46bd 6c49 7dbe 27d5 b7be
00000180: 3a81 33be 5a8b d3bd 2bdd a1bd 926d a43c
00000190: 1f84 20bf 2083 0bbf 35d9 39bd 740b 3dbd
000001a0: bd95 31be ef6f e6be d951 69bd 4579 17bf
000001b0: f04e dabe 766a ffbe e86f 28be 227f adbe
000001c0: e1fc ccbe b8d5 14be 844f 88be 6bc4 bebe
000001d0: 1cf7 47bd 728c 8fbe 94aa 1ebb 5445 06be
000001e0: 8efd c7be 7f22 6fbe 4bdd f8be a7c8 0dbf
000001f0: 9eb9 b4ba 2ba6 94be 0510 cfbe 3e76 153e
00000200: e805 eebc ba56 8a3d 2f3d 083e 4a06 8aba
00000210: 535a d7bd 6bd5 89ba b944 123e 986c 183e
00000220: 3925 303d dd11 0bbe b392 6d3d 8779 483d
00000230: fc2e bcbd 0245 3bbc 30be 0a3d 0336 edbd
00000240: 2823 4a3d 9fd2 e7bd 4944 2f3e 9af5 3d3e
00000250: d700 ee3d ec30 07be e5e7 91bd 45a7 b8bd
00000260: faa0 6b3d c628 e43d b244 683a a311 cb3d
00000270: 4748 99bd 1781 e9bb 862a 453b 3e1c a83d
00000280: edcf 033e 58ab bb3d 2389 e63d 82c9 503c
00000290: 5daf 423d d420 8a3d fb18 bf3d 3428 23bd
000002a0: e2aa 28bd 96bf 54bd a1cf 0dbe 23e8 29bd
000002b0: d5bd 023e 4c6b f0bc fe11 e83d de01 133d
000002c0: 2593 313d 5496 a13d 1965 45bb 5cd5 4eba
000002d0: 50db 25be 40ff f8bc 2e88 c83d 4f26 4d3d
000002e0: 9b3d 0cbd c0b0 6b3d 025d 84bd 3dd5 80bc
000002f0: 9f60 083c 6718 e7bc c320 33bd d828 abbd

gru.bias_hh_l0 f4 [192]
0.024636 -0.37974942 -0.22206599 -0.1291359 -0.19165693 -0.011119675 -0.011020541 -0.12410312
-0.24703485 -0.27328426 -0.18032202 -0.16013362 -0.09773413 -0.051836245 -0.0010451478 -0.16176103
-0.043120116 -0.13251068 -0.030804383 -0.1354203 -0.09956613 -0.114597395 -0.20423555 -0.235454
-0.027266407 -0.07375209 -0.10824144 -0.14653045 -0.14300229 0.025997682 0.09724567 -0.18888187
-0.15031487 -0.02891894 0.060599796 0.008001186 0.055530827 -0.07344766 -0.035460703 -0.21876752
-0.10796415 -0.110845365 -0.19081058 -0.16079597 -0.03399509 -0.1840038 -0.034970343 -0.12200151
0.013794824 0.0018850573 0.048033867 -0.06752223 -0.26617688 -0.17798531 -0.276956 -0.21834183
0.083518386 -0.2011623 -0.2340051 -0.07430428 -0.13707568 -0.03799169 -0.21884862 -0.15241395
-0.31105745 -0.5733343 -0.15157257 -0.34079704 -0.4685738 0.17514233 0.100528866 -0.09975479
-0.5103847 0.16665216 -0.29276255 -0.383837 -0.1382445 -0.031031745 -0.1386772 0.24003896
-0.6912825 0.12951382 0.14581642 -0.2556926 0.0309014 -0.09258889 0.10696821 0.024237005
-0.7893519 -0.64808947 0.07356548 0.039566584 -0.38536128 -0.08117639 -0.30050525 -0.34180966
-0.098781474 -0.033078168 -0.006230261 0.040161747 -0.47492105 -0.5944255 0.09037202 0.007201847
-0.28169334 -0.3387632 -0.111398175 -0.58291024 -0.22307152 -0.61986846 -0.22637947 -0.5097633
-0.57356614 0.02277877 -0.12200712 -0.4599112 0.113817066 -0.24127288 0.050113417 -0.03773815
-0.2401878 -0.47710252 -0.400985 -0.40105972 0.16855027 -0.3411944 -0.35981798 0.032033656
-0.055042967 0.122137554 -0.03309655 0.086794816 -0.082766496 0.15003334 0.10744806 0.09109754
0.026708543 -0.038444918 0.059262693 0.15135056 0.122606665 0.055103544 -0.05686134 -0.13316263
0.13288043 -0.09343213 0.045542743 0.1275055 0.11642203 -0.07225975 -0.01789727 0.120416224
0.09936187 0.13638397 -0.046982337 0.08368504 0.059837952 0.1428324 -0.14401431 0.06441585
0.16679364 0.0021423136 0.17061797 0.04235878 0.16583309 0.19559374 0.012813655 0.05599296
0.05840887 -0.07896307 -0.121120594 0.055190384 -0.05115764 0.11013355 -0.028972644 -0.121559665
-0.051732183 0.08294054 -0.095276445 0.01043117 -0.062105175 -0.0060653784 0.04094501 0.09807537
-0.19284678 0.10035953 0.021458052 -0.07573306 0.13755554 -0.06027065 -0.037867527 -0.14572312
00000000: 70d1 c93c 846e c2be 4465 63be 343c 04be
00000010: b741 44be 4c2f 36bc 808f 34bc c729 febd
00000020: b4f6 7cbe eaeb 8bbe 56a6 38be 11fa 23be
00000030: d528 c8bd 3e52 54bd 57fd 88ba afa4 25be
00000040: b89e 30bd e1b0 07be 7959 fcbc 9eab 0abe
00000050: 54e9 cbbd 0ab2 eabd 2023 51be da1a 71be
00000060: cd5d dfbc 560b 97bd b0ad ddbd 140c 16be
00000070: 316f 12be 17f9 d43c bd28 c73d 406a 41be
00000080: 24ec 19be 6ae7 ecbc 7e37 783d 6817 033c
00000090: 4b74 633d ba6b 96bd 3e3f 11bd 9804 60be
000000a0: 4f1c ddbd e502 e3bd d963 43be b3a7 24be
000000b0: 6f3e 0bbd 7e6b 3cbe 103d 0fbd eddb f9bd
000000c0: af03 623c 0714 f73a 29bf 443d 1849 8abd
000000d0: 5648 88be c841 36be 2dcd 8dbe 0095 5fbe
000000e0: b00b ab3d 7dfd 4dbe 089f 6fbe d82c 98bd
000000f0: 915d 0cbe 2d9d 1bbd da19 60be 6712 1cbe
00000100: ec42 9fbe 09c6 12bf d735 1bbe f37c aebe
00000110: e8e8 efbe 8358 333e 14e2 cd3d 3d4c ccbd
00000120: 92a8 02bf dda6 2a3e f9e4 95be 4986 c4be
00000130: f78f 0dbe 4936 febc 6501 0ebe c6cc 753e
00000140: e4f7 30bf 459f 043e e650 153e 24ea 82be
00000150: ef24 fd3c 3e9f bdbd 2612 db3d af8c c63c
00000160: f712 4abf 31e9 25bf 80a9 963d 9210 223d
00000170: 134e c5be cf3f a6bd d3db 99be ad01 afbe
00000180: f14d cabd f97c 07bd 3827 ccbb a580 243d
00000190: da28 f3be 452c 18bf f714 b93d 79fd eb3b
000001a0: 1c3a 90be 5f72 adbe ba24 e4bd 9b39 15bf
000001b0: dc6c 64be b3af 1ebf 05d0 67be d97f 02bf
000001c0: 3bd5 12bf 8b9a ba3c dede f9bd 7b79 ebbe
000001d0: ec18 e93d 3d10 77be ba43 4d3d 5293 1abd
000001e0: caf3 75be c846 f4be e84d cdbe b357 cdbe
000001f0: 7198 2c3e 08b1 aebe 103a b8be b935 033d
00000200: bc74 61bd 4123 fa3d 3f90 07bd 7bc1 b13d
00000210: 7b81 a9bd 57a2 193e ba0d dc3d 5991 ba3d
00000220: e0cb da3c 6b78 1dbd 70bd 723d a4fb 1a3e
00000230: 3419 fb3d 41b4 613d 70e7 68bd c95b 08be
00000240: cf11 083e 5859 bfbd 078b 3a3d cd90 023e
00000250: ac6e ee3d ebfc 93bd 4c9d 92bc c89c f63d
00000260: 3c7e cb3d 3da8 0b3e 8d70 40bd 1063 ab3d
00000270: a418 753d a842 123e 7d78 13be 75ec 833d
00000280: f4cb 2a3e 0f66 0c3b 7ab6 2e3e 6680 2d3d
00000290: 26d0 293e ba49 483e 5df0 513c e058 653d
000002a0: 243e 6f3d 64b7 a1bd 130e f8bd 500f 623d
000002b0: ac8a 51bd b38d e13d 0a58 edbc 46f4 f8bd
000002c0: 20e5 53bd bbdc a93d 4c20 c3bd 80e7 2a3c
000002d0: ff61 7ebd 15c0 c6bb f4b5 273d bddb c83d
000002e0: a079 45be 4c89 cd3d ccc8 af3c ef19 9bbd
000002f0: 5cdb 0c3e 5bde 76bd fb1a 1bbd 7138 15be

gru.weight_ih_l1 f4 [192, 64]
0.15501176 -0.39359826 0.07895668 -0.12403439 0.010316986 -0.19279884 0.066530734 -0.030492228
0.23986536 -0.2790185 -0.22162466 -0.44089112 -0.113211334 0.1879265 0.14393412 0.030481001
0.2941649 -0.10829854 0.01243756 0.19406663 -0.10386251 -0.06907841 -0.19012098 -0.2293569
-0.026304228 -0.081178404 0.09029267 -0.010127119 -0.14893946 0.15310903 0.2879608 -0.13445957
0.36958233 0.13259923 0.15294993 -0.14539106 -0.21398214 -0.06752662 -0.15365228 -0.110769846
0.22015241 -0.23642652 -0.14441852 -0.11580814 -0.06665656 -0.23344335 0.1369778 0.066130295
0.0097674085 -0.03199647 0.19729221 -0.46576032 0.09728063 0.13816369 0.06546769 -0.08935516
0.1127397 -0.21689558 0.24960458 0.144073 -0.037770778 0.28780794 -0.14853898 -0.20184463
0.0012379587 -0.0080064675 -0.0110665765 -0.0042305873 -0.03080812 -0.09762924 -0.04169194 -0.07996896
0.01962501 0.17858742 -0.14897154 -0.044113018 0.0027781352 0.010099292 -0.0962193 -0.08882842
0.03851631 0.021590456 -0.11535871 -0.46680373 0.022811452 -0.09397217 0.123570755 0.120599665
-0.19461948 -0.10453723 0.15079916 0.14890306 -0.1903699 -0.20168492 0.023020677 0.11901386
-0.17497039 -0.208827 0.09733499 0.07750325 0.13154075 -0.13717358 -0.058395866 -0.017270414
0.11129241 -0.17611508 0.014776183 -0.049664192 -0.14927888 0.105142206 -0.018082805 0.16111708
0.30413485 0.06340161 -0.15477018 -0.0015332927 0.0479481 0.22117041 0.02321251 0.104501605
-0.0347491 -0.27106643 0.1611489 0.12560986 -0.09505079 0.28569883 -0.0020410963 -0.000719752
0.11855501 -0.0313727 0.09976555 0.18993089 -0.2642433 -0.23590782 -0.06103004 0.08962307
-0.24172227 -0.32085255 -0.20058718 0.2508329 0.18718976 -0.027399937 -0.2503854 0.091001295
0.10364118 -0.05544078 -0.102788664 0.14642346 -0.22757529 -0.112142555 -0.094416566 0.08985948
0.5317708 0.21976808 0.15218244 0.084036976 -0.046282567 0.07549411 -0.12555538 0.12407426
0.014800279 0.17989348 0.09175452 0.046745546 0.12670116 0.21985407 0.03925354 0.16479766
0.030757286 0.12493443 -0.09956805 0.019504515 0.33045518 -0.03045719 -0.023549937 -0.011408282
0.045102857 -0.014229748 0.051905368 0.28514984 0.003310464 -0.06051925 0.12531827 -0.02386762
-0.13771048 0.3421685 -0.0045761983 -0.09691105 -0.015598961 -0.05972096 -0.009766473 -0.017085243
0.21543406 -0.18965092 -0.1931836 -0.06433262 0.4103963 0.14092343 0.034629438 -0.25939578
0.11964538 0.15709624 -0.08285329 -0.360597 -0.117223725 0.055212274 -0.04866534 0.0021619862
0.23858498 0.1336314 -0.014636005 -0.5694752 0.25428298 0.12158197 0.13689816 -0.16709222
-0.30894327 -0.13741507 0.14454286 0.112404235 -0.19760147 -0.016969673 0.070950165 -0.10036906
-0.31147859 -0.16281252 0.0015867405 -0.07802626 -0.26040903 -0.2950479 -0.030966727 0.14718372
-0.13585725 -0.26964167 0.13235384 -0.22868732 -0.17207102 -0.2694316 0.00061298336 0.287748
0.41861558 -0.096891455 -0.0049586487 -0.048425727 -0.02888217 0.2092655 -0.011109327 -0.024523608
0.18589537 -0.43682936 0.15102012 0.16325665 -0.017926753 0.10985259 -0.14259951 -0.1896337
00000000: 67bb 1e3e b685 c9be 0ab4 a13d be05 febd
00000010: 9308 293c 0f6d 45be 4441 883d d6ca f9bc
00000020: 449f 753e 83db 8ebe 93f1 62be 7bbc e1be
00000030: 58db e7bd ce6f 403e 7763 133e 4bb3 f93c
00000040: c89c 963e a0cb ddbd e8c6 4b3c 67b9 463e
00000050: deb5 d4bd fb78 8dbd 13af 42be 89dc 6abe
00000060: f77b d7bc dd40 a6bd 5deb b83d 37ec 25bc
00000070: 9683 18be 9dc8 1c3e 996f 933e c5af 09be
00000080: e539 bd3e 18c8 073e e89e 1c3e 65e1 14be
00000090: 221e 5bbe 664b 8abd 0657 1dbe 4ddb e2bd
000000a0: a26f 613e cb19 72be 73e2 13be d12c edbd
000000b0: 3c83 88bd c60b 6fbe e943 0c3e 526f 873d
000000c0: 7b07 203c bb0e 03bd f806 4a3e 2378 eebe
000000d0: 113b c73d c87a 0d3e ed13 863d d7ff b6bd
000000e0: 12e4 e63d e019 5ebe 5898 7f3e df87 133e
000000f0: 88b5 1abd 905b 933e 9a1a 18be 5cb0 4ebe
00000100: 0043 a23a 8f2d 03bc 9650 35bc bda0 8abb
00000110: 4f61 fcbc d7f1 c7bd 2bc5 2abd c4c6 a3bd
00000120: a1c4 a03c 9fdf 363e ff8b 18be daaf 34bd
00000130: 6011 363b 8077 253c a00e c5bd adeb b5bd
00000140: 47c3 1d3d 78de b03c 3041 ecbd e600 efbe
00000150: 15df ba3c 7b74 c0bd aa12 fd3d f5fc f63d
00000160: 544a 47be 9e17 d6bd 186b 1a3e 0b7a 183e
00000170: 54f0 42be 7e86 4ebe dc95 bc3c 8abd f33d
00000180: 702b 33be bfd6 55be 9157 c73d 06ba 9e3d
00000190: 9eb2 063e 3b77 0cbe 8130 6fbd af7a 8dbc
000001a0: 46ed e33d 8357 34be ce17 723c ae6c 4bbd
000001b0: 90dc 18be cc54 d73d 6422 94bc e0fb 243e
000001c0: 90b7 9b3e b4d8 813d 137c 1ebe c4f8 c8ba
000001d0: 3a65 443d 7f7a 623e 2928 be3c f004 d63d
000001e0: 1355 0ebd 38c9 8abe 3804 253e df9f 003e
000001f0: fda9 c2bd 1e47 923e eac3 05bb bdad 3cba
00000200: f8cc f23d a980 00bd e151 cc3d 3e7d 423e
00000210: e64a 87be d291 71be a3fa 79bd 4d8c b73d
00000220: 0b86 77be c946 a4be ba66 4dbe 2b6d 803e
00000230: acae 3f3e d575 e0bc 8432 80be e35e ba3d
00000240: d441 d43d df15 63bd dd82 d2bd 08f0 153e
00000250: 7f09 69be ffaa e5bd 795d c1bd 3f08 b83d
00000260: 2222 083f e20a 613e b7d5 1b3e 941b ac3d
00000270: ca92 3dbd a89c 9a3d 9791 00be a51a fe3d
00000280: df7c 723c ff35 383e cbe9 bb3d 4278 3f3d
00000290: f3bd 013e 6d21 613e 52c8 203d b8c0 283e
000002a0: b4f6 fb3c 9fdd ff3d 55ea cbbd efc7 9f3c
000002b0: 6c31 a93e 5b81 f9bc cceb c0bc cee9 3abc
000002c0: c6bd 383d e423 69bc b99a 543d 29ff 913e
000002d0: 5ff4 583b 08e3 77bd 6f53 003e 0786 c3bc
000002e0: fa03 0dbe b630 af3e eff3 95bb 4d79 c6bd
000002f0: c992 7fbc f79d 74bd 8f03 20bc 5af6 8bbc
00000300: bf9a 5c3e da33 42be ecd1 45be d2c0 83bd
00000310: 771f d23e 3b4e 103e 99d7 0d3d 86cf 84be
00000320: a308 f53d d6dd 203e fcae a9bd 2ca0 b8be
00000330: fe12 f0bd 4426 623d 4f55 47bd 1cb0 0d3b
00000340: 9f4f 743e abd6 083e dbcb 6fbc 20c9 11bf
00000350: 6131 823e f8ff f83d 082f 0c3e 391a 2bbe
00000360: d02d 9ebe 89b6 0cbe 0b03 143e 3134 e63d
00000370: 0a58 4abe fc03 8bbc 524e 913d 4b8e cdbd
00000380: 1f7a 9fbe 53b8 26be 2dfa cf3a 3bcc 9fbd
00000390: 5554 85be 8510 97be efad fdbc 54b7 163e
000003a0: 2a1e 0bbe 790e 8abe c487 073e 022d 6abe
000003b0: 6333 30be f0f2 89be 9eb0 203a b553 933e
000003c0: c854 d63e 076f c6bd 297c a2bb 0e5a 46bd
000003d0: 4d9a ecbc b249 563e e503 36bc bce5 c8bc
000003e0: 5b5b 3e3e 19a8 dfbe 05a5 1a3e c02c 273e
000003f0: 20db 92bc 65fa e03d 9b05 12be 562f 42be

gru.weight_hh_l1 f4 [192, 64]
0.12208638 -0.2378833 0.20677224 -0.1677822 0.15675813 -0.08479118 0.007228495 0.21349186
0.305447 0.19647208 0.068662845 0.2811515 -0.18936546 -0.08993587 -0.015875628 0.42780492
-0.0018715138 0.18760206 -0.15701845 -0.005160959 0.1584991 -0.12941843 0.07269658 0.12206632
0.2420878 -0.11168137 -0.15623994 0.17033212 0.1370821 -0.0008014891 0.13573189 -0.1375092
-0.0037459636 -0.016018352 -0.122894876 0.12543993 -0.103700474 0.16499895 -0.37123257 0.11041706
0.3923346 0.2514245 0.038588494 0.019538768 0.12702772 -0.047398206 -0.29692647 -0.12915364
0.22424458 0.016034584 0.05123388 -0.0057826466 -0.42686832 0.21089122 -0.068993494 0.0055465996
-0.1785634 0.118652806 0.07205196 0.17923795 0.032177117 -0.24549663 -0.27262425 -0.283882
0.14848359 -0.06569292 0.09517299 -0.06802587 0.0069381366 -0.14381602 -0.036379285 0.14533132
0.049075406 -0.12085529 0.08876938 0.3590944 -0.032806646 0.18203379 -0.00060903316 0.49073607
0.08463069 0.021180758 0.1166305 0.034705557 0.26706094 -0.18405041 0.04385379 0.02750052
0.11186741 -0.21484223 -0.12550528 -0.12848228 0.2929867 0.29240873 -0.286755 -0.06471651
-0.056220073 0.027451629 0.20919836 0.10037308 -0.025768634 -0.097041175 -0.058610518 -0.15818128
-0.023024334 0.15487507 -0.16356523 -0.029301457 0.18631162 -0.002095798 -0.34187457 -0.1594084
0.029168546 0.26588732 -0.083134994 -0.05666213 -0.34677246 -0.0673946 0.04164257 0.11984624
-0.04284418 -0.06365833 0.011711324 0.04147032 0.35363376 -0.13058093 -0.26057282 -0.16885905
-0.13470544 0.09004972 -0.14142598 0.21811652 0.17292814 0.28959256 0.0057747927 0.00738093
0.09019377 0.00065386645 0.059503913 -0.005947397 0.15209617 0.052239068 -0.018771265 0.09929639
-0.016140895 0.0004501207 0.0029304195 -0.08932933 0.216493 -0.13054775 0.0077537317 0.11648056
-0.0015922268 -0.17183542 0.04001465 0.050623346 -0.12696025 -0.018479303 -0.11632367 0.13435847
0.08591995 -0.24692011 0.0678041 0.01322694 -0.12844054 0.09359583 -0.13368005 -0.20087957
-0.08207011 0.0056297537 0.045131058 0.08357875 0.13364674 0.1841206 0.03872101 0.24279273
-0.028114434 -0.014394986 0.09198455 0.20611103 -0.087040104 -0.06679942 -0.054696534 -0.21408121
-0.11434578 0.06815064 -0.14333151 -0.17298968 0.03644418 -0.1223021 -0.056676093 -0.04549859
-0.1988638 0.01051659 -0.05468568 0.031704515 0.052700527 -0.096476324 -0.08822285 -0.007965947
-0.008913374 0.21079637 0.12370085 0.39043432 0.037353504 -0.004146304 -0.031735584 0.015175796
0.26484796 -0.4419719 -0.18292753 0.10571878 0.10717825 -0.23665142 0.18420722 -0.06282701
0.1271303 0.06525422 0.08794655 0.031372394 0.10249076 0.051905233 0.01741224 -0.023437472
-0.03188526 -0.019925602 -0.17028767 -0.00088794803 -0.23369722 -0.2009512 -0.07440349 -0.07428735
-0.04383866 0.11349367 0.12412619 0.014210712 0.10574471 0.020714497 -0.2361062 0.08709525
-0.113882944 0.003197599 0.1858138 0.2059197 -0.07564657 0.20600097 -0.07236478 0.037248585
-0.15553038 0.17034173 0.096117616 0.05677169 -0.16815087 -0.007362213 -0.045443997 -0.04304451
00000000: 6d08 fa3d ae97 73be 1abc 533e 19cf 2bbe
00000010: 3485 203e 00a7 adbd 03dd ec3b 9c9d 5a3e
00000020: 8d63 9c3e fa2f 493e 1b9f 8c3d 17f3 8f3e
00000030: 05e9 41be 4c30 b8bd 9b0d 82bc 3f09 db3e
00000040: 954d f5ba c11a 403e 72c9 20be 431d a9bb
00000050: 974d 223e 4486 04be f2e1 943d e8fd f93d
00000060: dde5 773e 34b9 e4bd 5dfd 1fbe 8b6b 2e3e
00000070: 405f 0c3e 061b 52ba 4dfd 0a3e 36cf 0cbe
00000080: d77e 75bb eb38 83bc 4fb0 fbbd 5373 003e
00000090: ea60 d4bd 7cf5 283e 3212 bebe 5722 e23d
000000a0: 15e0 c83e b6ba 803e f80e 1e3d c40f a03c
000000b0: 8e13 023e 9f24 42bd bf06 98be da40 04be
000000c0: 5fa0 653e f65a 833c 9eda 513d 5b7c bdbb
000000d0: 7c8e dabe def3 573e 764c 8dbd 40c0 b53b
000000e0: 53d9 36be 3e00 f33d fa8f 933d 278a 373e
000000f0: 27cc 033d 7863 7bbe 6895 8bbe fb58 91be
00000100: 150c 183e 028a 86bd 0eea c23d 2651 8bbd
00000110: 4f59 e33b 8244 13be 7202 15bd bcd1 143e
00000120: 4b03 493d fa82 f7bd b8cc b53d 39db b73e
00000130: 4360 06bd 1167 3a3e 86a7 1fba c241 fb3e
00000140: db52 ad3d 4583 ad3c f9db ee3d 6a27 0e3d
00000150: 36bc 883e b677 3cbe 08a0 333d c548 e13c
00000160: be1a e53d 9aff 5bbe 7584 00be dc90 03be
00000170: 5a02 963e 99b6 953e 8dd1 92be 178a 84bd
00000180: 0547 66bd 3de2 e03c 1838 563e 6790 cd3d
00000190: be18 d3bc 86bd c6bd 9511 70bd 46fa 21be
000001a0: 879d bcbc 9297 1e3e a57d 27be 9c09 f0bc
000001b0: 79c8 3e3e a859 09bb 2f0a afbe f53b 23be
000001c0: e0f2 ee3c 6222 883e ae42 aabd 8d16 68bd
000001d0: 298c b1be 2e06 8abd 6691 2a3d f271 f53d
000001e0: 617d 2fbd 4c5f 82bd dae0 3f3c c8dc 293d
000001f0: 7c0f b53e 02b7 05be cd69 85be 63e9 2cbe
00000200: 39f0 09be fd6b b83d f9d1 10be f059 5f3e
00000210: 1314 313e 7a45 943e 793a bd3b badb f13b
00000220: 83b7 b83d 3c68 2b3a 60ba 733d 62e2 c2bb
00000230: 19bf 1b3e a2f8 553d 32c6 99bc e85b cb3d
00000240: e939 84bc 2dfe eb39 480c 403b 4cf2 b6bd
00000250: 57b0 5d3e 4fae 05be 0413 fe3b 5c8d ee3d
00000260: 44b2 d0ba a0f5 2fbe 67e6 233d 6d5a 4f3d
00000270: de01 02be e861 97bc 1b3b eebd 4495 093e
00000280: ccf6 af3d a0d8 7cbe e0dc 8a3d cfb5 583c
00000290: eb85 03be 2caf bf3d 6ce3 08be 60b3 4dbe
000002a0: 6014 a8bd cc79 b83b 58db 383d 562b ab3d
000002b0: b1da 083e 1c8a 3c3e ec99 1e3d a89e 783e
000002c0: 3e50 e6bc f3d8 6bbc 6562 bc3d c50e 533e
000002d0: 1542 b2bd 22ce 88bd 7909 60bd 1b38 5bbe
000002e0: 1f2e eabd 9092 8b3d 7fc5 12be 3524 31be
000002f0: 7e46 153d 8679 fabd 3125 68bd bb5c 3abd
00000300: f4a2 4bbe c74d 2c3c 17fe 5fbd 98dc 013d
00000310: 82dc 573d 6195 c5bd 2eae b4bd 9a83 02bc
00000320: 6609 12bc 01db 573e df56 fd3d 02e7 c73e
00000330: fdff 183d b8dd 87bb 2cfd 01bd e7a3 783c
00000340: 279a 873e 244a e2be 5b51 3bbe 1683 d83d
00000350: 4580 db3d c054 72be d1a0 3c3e 73ab 80bd
00000360: 722e 023e 01a4 853d 521d b43d 5780 003d
00000370: ade6 d13d 959a 543d 1da4 8e3c f1ff bfbc
00000380: 1e9a 02bd 043b a3bc e45f 2ebe 2fc5 68ba
00000390: 534e 6fbe 27c6 4dbe db60 98bd f723 98bd
000003a0: 2b90 33bd 5f6f e83d df35 fe3d 0cd4 683c
000003b0: af90 d83d 73b1 a93c d3c5 71be ff5e b23d
000003c0: 763b e9bd cf8e 513b f945 3e3e 9ddc 523e
000003d0: 97ec 9abd ebf1 523e fc33 94bd f991 183d
000003e0: 5b43 1fbe 106e 2e3e 50d9 c43d 6e89 683d
000003f0: be2f 2cbe b83e f1bb 7c23 3abd 714f 30bd

gru.bias_ih_l1 f4 [192]
0.02105595 -0.2192665 -0.14620972 0.0055256486 0.018221078 0.2098381 0.0602709 0.0768237
-0.18696274 0.032848265 -0.08112384 0.14460549 -0.23143709 -0.039786577 -0.18033378 -0.035552736
0.049985446 0.0064047645 -0.013624429 0.04145705 0.04426259 0.043728597 -0.32224748 0.10736742
-0.18422915 -0.029684432 0.2612518 -0.055538908 -0.100594886 -0.075775415 -0.13468578 -0.099589385
0.037884656 -0.07627791 -0.13191666 -0.21892518 0.05487031 -0.0214348 0.17607407 -0.09307621
-0.23018102 -0.14788914 0.039841436 -0.032452445 -0.016879894 -0.044018243 0.135822 0.16351698
-0.21450856 -0.12069945 -0.008218504 -0.023414621 -0.15007274 0.0702177 0.100616485 0.11728487
-0.12712306 -0.0643822 -0.08487463 -0.0831896 0.017770546 0.20425951 -0.08033295 -0.1302884
0.10457733 0.028388083 -0.01341099 -0.060202725 -0.056251843 0.079727374 0.23700854 0.0875077
-0.10937348 -0.10670409 0.18860012 -0.1835779 -0.13582699 -0.07251819 0.04486898 -0.029767804
-0.6132881 0.2624234 -0.39710802 -0.032173883 -0.22113031 0.18173876 0.32595113 -0.077092916
-0.047632128 0.061065778 -0.18139695 0.030790849 -0.17074706 0.08139251 -0.105893955 0.05690793
0.017543642 -0.13609608 0.03137008 0.16093794 0.28502917 -0.21794553 0.06902497 0.09312552
-0.031559933 -0.009397399 0.12774496 -0.15351841 -0.16870509 0.1433976 0.09940619 -0.014959867
0.014193724 0.2026294 0.10893134 0.17502786 -0.1626 -0.06665512 0.073937766 0.03940381
-0.21684696 -0.26281473 0.096507385 -0.17019174 0.13970542 0.002919829 -0.04730021 0.17348564
0.1823035 -0.18866844 0.07056508 -0.11615323 0.05669846 0.1294473 -0.09750548 0.14598343
0.16559131 -0.21804085 -0.16704795 0.014854626 -0.117681645 0.0006867888 0.013245385 0.1485991
-0.13885167 0.075486764 0.09504312 0.09658367 0.085385494 -0.050058965 -0.10783885 -0.0726943
0.0741423 0.057486057 0.17516594 0.14340323 0.0025063218 -0.22331306 0.07006738 -0.06596777
-0.10511736 -0.0064163706 0.17404515 0.17649613 0.12719569 -0.07839521 0.14069311 0.19011329
0.035463624 0.024667405 -0.11761862 0.09605916 0.09482846 -0.04859278 -0.101275064 -0.07580607
0.14822148 -0.012038739 -0.04106695 -0.04809211 -0.11609061 0.061105873 0.0150786545 -0.05229238
0.07447574 0.14122793 0.06407765 -0.14493825 -0.028256735 0.040634546 0.012739111 -0.12249269
00000000: 877d ac3c 6687 60be 00b8 15be 8010 b53b
00000010: 5f44 953c cddf 563e 9fde 763d be55 9d3d
00000020: 2973 3fbe e78b 063d 4124 a6bd 7613 143e
00000030: d8fd 6cbe 40f7 22bd 6ba9 38be bf9f 11bd
00000040: 8abd 4c3d 0fdf d13b ff38 5fbc dece 293d
00000050: b14c 353d c21c 333d 9ffd a4be 73e3 db3d
00000060: 91a6 3cbe c42c f3bc ccc2 853e c47c 63bd
00000070: b104 cebd 2430 9bbd 12eb 09be 85f5 cbbd
00000080: f12c 1b3d 9837 9cbd 2915 07be ec2d 60be
00000090: b1bf 603d 0998 afbc c34c 343e bd9e bebd
000000a0: 93b4 6bbe 4070 17be c630 233d dbec 04bd
000000b0: b447 8abc 794c 34bd ec14 0b3e ff70 273e
000000c0: 22a8 5bbe 4631 f7bd e7a6 06bc 05d0 bfbc
000000d0: abac 19be 4cce 8f3d 0410 ce3d 0d33 f03d
000000e0: 8c2c 02be d1da 83bd c0d2 adbd 4f5f aabd
000000f0: 8993 913c 6829 513e 9a85 a4bd 536a 05be
00000100: a42c d63d 208e e83c c5b9 5bbc 2297 76bd
00000110: 5568 66bd 1b48 a33d 5eb2 723e 3d37 b33d
00000120: 34ff dfbd ad87 dabd 6420 413e d8fb 3bbe
00000130: 3b16 0bbe 6b84 94bd 89c8 373d 9cdb f3bc
00000140: 7300 1dbf 5c5c 863e be51 cbbe c3c8 03bd
00000150: fc6f 62be ba19 3a3e 11e3 a63e e4e2 9dbd
00000160: e819 43bd 1c20 7a3d 1fc0 39be 173d fc3c
00000170: 51d8 2ebe 1eb1 a63d eede d8bd 4a18 693d
00000180: afb7 8f3c c55c 0bbe ea7d 003d eacc 243e
00000190: 58ef 913e 1d2d 5fbe f75c 8d3d 98b8 be3d
000001a0: fd44 01bd 8cf7 19bc 93cf 023e ee33 1dbe
000001b0: 07c1 2cbe d2d6 123e 7995 cb3d 3b1a 75bc
000001c0: cb8c 683c 157e 4f3e 6517 df3d 813a 333e
000001d0: 9d80 26be 7b82 88bd af6c 973d e465 213d
000001e0: 210d 5ebe a78f 86be aaa5 c53d be46 2ebe
000001f0: f00e 0f3e 9a5a 3f3b ddbd 41bd 38a6 313e
00000200: c5ad 3a3e 4d32 41be 6d84 903d bfe1 edbd
00000210: a53c 683d d58d 043e f4b0 c7bd ae7c 153e
00000220: c590 293e 1a46 5fbe 9e0e 2bbe d160 733c
00000230: 1303 f1bd 9e09 343a 2c03 593c 5d2a 183e
00000240: 222f 0ebe ce98 9a3d f8a5 c23d a9cd c53d
00000250: 97de ae3d a10a 4dbd 9dda dcbd c0e0 94bd
00000260: ebd7 973d 8076 6b3d b35e 333e 4cd8 123e
00000270: 1a41 243b 2eac 64be 7d7f 8f3d 1c1a 87bd
00000280: c547 d7bd 6b40 d2bb e438 323e 67bb 343e
00000290: 963f 023e ab8d a0bd db11 103e 0fad 423e
000002a0: 4e42 113d 4c13 ca3c 08e2 f0bd aaba c43d
000002b0: 6c35 c23d 3909 47bd 4d69 cfbd 3640 9bbd
000002c0: 5fc7 173e 223e 45bc d135 28bd 3bfc 44bd
000002d0: eac0 edbd 274a 7a3d 760c 773c 8930 56bd
000002e0: bd86 983d 0e9e 103e 253b 833d b16a 14be
000002f0: ab7a e7bc 6970 263d b4b7 503c 73dd fabd

gru.bias_hh_l1 f4 [192]
0.11017993 0.012493084 -0.06265146 0.0010417402 -0.1782057 0.16402751 -0.1069817 0.06972677
-0.22252624 0.14778723 -0.11291582 0.041401412 -0.10865621 0.049998064 -0.13949776 -0.17401753
0.013754569 -0.07650962 -0.12533748 -0.061187938 -0.19506975 0.07931222 -0.3055032 0.12643033
-0.025170235 -0.21550217 0.23244466 -0.09184084 -0.20097056 -0.10450802 0.009227187 -0.09250963
0.02549128 0.020609727 -0.10376827 -0.22871126 -0.10372827 0.052768826 0.18487927 -0.052868553
-0.032425586 -0.22444174 -0.04189598 0.11620223 0.048680708 0.08218194 -0.00019170286 0.18510896
-0.16150898 -0.0042207316 -0.05594777 -0.08636482 -0.20789516 0.02675896 0.094589435 -0.024560397
0.026094446 -0.13118353 -0.20933065 -0.11029602 0.020940203 0.095407315 -0.05124482 -0.026677843
-0.10113574 -0.05726888 -0.06779183 0.10249129 -0.114076726 0.02115509 0.24521351 0.020357698
-0.11696395 -0.18687013 0.22682379 -0.34305406 -0.12591393 -0.04274019 0.011332313 -0.08962565
-0.4846222 0.17311293 -0.22487219 -0.09106139 -0.08986463 0.12855907 0.23463313 0.09778832
0.16341269 -0.09061837 -0.037560306 0.059078675 -0.10036303 -0.10102212 -0.257503 0.056625143
0.0996789 -0.24332201 -0.07591354 0.20291613 0.2356958 -0.24227063 0.070770085 0.2508328
0.16044654 -0.078751996 0.028415196 -0.07874156 0.06899947 0.046303358 0.012304111 -0.021696666
0.22228512 0.22683263 0.24784878 0.17116567 -0.15270856 -0.12643927 0.24450062 0.06843542
-0.024610808 -0.20862104 -0.06417493 -0.10990164 0.1124719 0.14854337 0.049160793 0.09145051
0.0734373 -0.052227985 0.12819785 -0.14008217 0.16097248 0.1836551 -0.17746747 0.1745324
0.1377593 -0.11755565 0.01941871 -0.08083731 -0.02938115 0.34022298 -0.07239816 0.10379764
0.1269362 0.17405093 -0.21150272 0.05239088 -0.09254519 -0.09722349 0.06381194 0.12308992
0.18859011 -0.072236195 0.24632676 -0.10818558 -0.044648442 -0.055434573 0.005669612 -0.009412683
-0.051844567 0.020638255 0.040280584 -0.0070608254 0.0795176 0.05085362 0.006687121 0.054563336
0.085362084 0.049029715 0.06311468 0.06528507 0.2085247 0.028063815 -0.06894947 -0.21734878
0.10037895 -0.081786804 -0.02623672 -0.1273352 0.06985642 -0.011333062 0.13221812 -0.0696309
0.035851248 -0.004081252 0.00649025 -0.015710039 0.14470765 -0.16439949 -0.011706048 -0.12451656
00000000: 04a6 e13d cbaf 4c3c 694f 80bd 008b 883a
00000010: 8e7b 36be d4f6 273e 3919 dbbd e9cc 8e3d
00000020: ebdd 63be 8955 173e 6940 e7bd 8794 293d
00000030: 2687 debd c5ca 4c3d 80d8 0ebe a731 32be
00000040: d85a 613c 13b1 9cbd 7858 00be 34a0 7abd
00000050: 5dc0 47be 726e a23d ea6a 9cbe f476 013e
00000060: cf31 cebc 9aac 5cbe f905 6e3e 0d17 bcbd
00000070: 3acb 4dbe 4d08 d6bd a12d 173c b075 bdbd
00000080: 17d3 d03c bbd5 a83c 7584 d4bd 4933 6abe
00000090: 7d6f d4bd 2024 583d fe50 3d3e b28c 58bd
000000a0: b1d0 04bd 0ed4 65be 1e9b 2bbd 6ffb ed3d
000000b0: 6c65 473d 014f a83d d803 49b9 348d 3d3e
000000c0: 9c62 25be 104e 8abb 7d29 65bd 0ae0 b0bd
000000d0: 78e2 54be 9b35 db3c 1bb8 c13d e332 c9bc
000000e0: 05c4 d53c fa54 06be c65a 56be e1e2 e1bd
000000f0: ca8a ab3c e964 c33d 17e6 51bd 7e8b dabc
00000100: 4120 cfbd c692 6abd 71d6 8abd f4e6 d13d
00000110: 0fa1 e9bd 704d ad3c 4019 7b3e 30c5 a63c
00000120: cc8a efbd e25a 3fbe 7f44 683e c8a4 afbe
00000130: 95ef 00be 5610 2fbd 2aab 393c a78d b7bd
00000140: 6720 f8be 8444 313e e544 66be 657e babd
00000150: f20a b8bd fda4 033e ab43 703e 3e45 c83d
00000160: a855 273e 2096 b9bd d6d8 19bd 7bfc 713d
00000170: 228b cdbd afe4 cebd 6fd7 83be c4ef 673d
00000180: 7324 cc3d 6829 79be 8f78 9bbd 3fc9 4f3e
00000190: 3d5a 713e cb15 78be e8ef 903d 286d 803e
000001a0: 194c 243e ba48 a1bd fcc6 e83c 4143 a1bd
000001b0: 984f 8d3d 97a8 3d3d 2f97 493c 35bd b1bc
000001c0: b69e 633e d046 683e 12cc 7d3e 0e46 2f3e
000001d0: a25f 1cbe 4c79 01be 5f5e 7a3e df27 8c3d
000001e0: 9b9c c9bc c1a0 55be 256e 83bd 1c14 e1bd
000001f0: ab57 e63d c11b 183e d45c 493d 684a bb3d
00000200: 4c66 963d 03ed 55bd 4c46 033e b371 0fbe
00000210: f8d5 243e 1510 3c3e 08ba 35be 9fb8 323e
00000220: c610 0d3e 04c1 f0bd fd13 9f3c 088e a5bd
00000230: bdb0 f0bc b531 ae3e 7d45 94bd db93 d43d
00000240: 90fb 013e 683a 323e 2b94 58be d297 563d
00000250: 5588 bdbd 1c1d c7bd d6af 823d 9116 fc3d
00000260: c41d 413e 92f0 93bd 153d 7c3e 6790 ddbd
00000270: 49e1 36bd 5d0f 63bd 27c8 b93b a737 1abc
00000280: f85a 54bd 8f11 a93c 41fd 243d 7f5e e7bb
00000290: 20da a23d e34b 503d a31f db3b ce7d 5f3d
000002a0: 51d2 ae3d 62d3 483d 4542 813d 2eb4 853d
000002b0: 8087 553e 16e6 e53c 6135 8dbd ae90 5ebe
000002c0: 7b93 cd3d d77f a7bd 64ee d6bc 2964 02be
000002d0: e210 8f3d 4fae 39bc 3064 073e a59a 8ebd
000002e0: c2d8 123d 06bc 85bb 2aac d43b 57b2 80bc
000002f0: 3e2e 143e 5758 28be b9ca 3fbc 8a02 ffbd

fc.weight f4 [1, 64]
0.040342003 -0.040055074 0.04224187 -0.04124709 0.08784053 0.06401836 -0.093812205 0.022946836
0.038772017 0.014646609 -0.05029759 0.024924647 -0.057159934 0.16204885 0.029568838 0.10582778
-0.06335178 0.058173683 -0.1217144 0.014724865 0.056232374 -0.015322388 -0.019623151 0.092859164
0.05393345 -0.011758156 0.22396646 -0.098253615 0.006311012 -0.14947033 0.14776418 -0.06320997
-0.05901867 -0.010747537 -0.019460592 0.044883285 0.010681328 -0.06471983 -0.025767379 0.08671562
0.041129824 0.049609024 -0.021260817 -0.03826443 0.04965488 0.022334944 -0.14720555 -0.035731748
0.05798345 0.019689005 -0.038898043 -0.008427318 -0.0510022 0.07647936 0.10855133 0.023380268
-0.03143612 0.080536455 -0.023743447 -0.11607679 0.040354792 -0.0792568 -0.042418838 -0.056115393
00000000: a83d 253d ca10 24bd d005 2d3d b5f2 28bd
00000010: bce5 b33d 0f1c 833d 9d20 c0bd 01fb bb3c
00000020: 68cf 1e3d 55f8 6f3c d904 4ebd c62e cc3c
00000030: 8920 6abd 22f0 253e 593a f23c 3cbc d83d
00000040: 94be 81bd 8747 6e3d 6645 f9bd 8f40 713c
00000050: eb53 663d c10a 7bbc bbc0 a0bc f22c be3d
00000060: 52e9 5c3d 48a5 40bc 7757 653e 3139 c9bd
00000070: 9bcc ce3b c00e 19be 7e4f 173e 3b74 81bd
00000080: 90bd 71bd 7016 30bc d26b 9fbc 89d7 373d
00000090: bd00 2f3c d58b 84bd 1c16 d3bc f597 b13d
000000a0: bf77 283d d532 4b3d 2a2b aebc 2abb 1cbd
000000b0: ea62 4b3d c6f7 b63c 0dbd 16be 745b 12bd
000000c0: 0e80 6d3d d64a a13c 8e53 1fbd bc12 0abc
000000d0: afe7 50bd 36a1 9c3d 2950 de3d fa87 bf3c
000000e0: 29c3 00bd 4cf0 a43d 9e81 c2bc abb9 edbd
000000f0: 114b 253d 6451 a2bd 60bf 2dbd 41d9 65bd
